…
cale=0.5, seed=0, shear=0.0, show=False, show_boxes=True, show_conf=True, show_labels=True, simplify=True, single_cls=False, source=None, split=val, stream_buffer=False, task=detect, time=None, tracker=botsort.yaml, translate=0.1, val=True, verbose=True, vid_stride=1, visualize=False, warmup_bias_lr=0.1, warmup_epochs=3.0, warmup_momentum=0.8, weight_decay=0.0005, workers=2, workspace=None\nOverriding model.yaml nc=80 with nc=3\n\n                   from  n    params  module                                       arguments                     \n  0                  -1  1       928  ultralytics.nn.modules.conv.Conv             [3, 32, 3, 2]                 \n  1                  -1  1     18560  ultralytics.nn.modules.conv.Conv             [32, 64, 3, 2]                \n  2                  -1  1     29056  ultralytics.nn.modules.block.C2f             [64, 64, 1, True]             \n  3                  -1  1     73984  ultralytics.nn.modules.conv.Conv             [64, 128, 3, 2]               \n  4                  -1  2    197632  ultralytics.nn.modules.block.C2f             [128, 128, 2, True]           \n  5                  -1  1     36096  ultralytics.nn.modules.block.SCDown          [128, 256, 3, 2]              \n  6                  -1  2    788480  ultralytics.nn.modules.block.C2f             [256, 256, 2, True]           \n  7                  -1  1    137728  ultralytics.nn.modules.block.SCDown          [256, 512, 3, 2]              \n  8                  -1  1    958464  ultralytics.nn.modules.block.C2fCIB          [512, 512, 1, True, True]     \n  9                  -1  1    656896  ultralytics.nn.modules.block.SPPF            [512, 512, 5]                 \n 10                  -1  1    990976  ultralytics.nn.modules.block.PSA             [512, 512]                    \n 11                  -1  1         0  torch.nn.modules.upsampling.Upsample         [None, 2, 'nearest']          \n 12             [-1, 6]  1         0  ultralytics.nn.modules.conv.Concat           [1]                           \n 13                  -1  1    591360  ultralytics.nn.modules.block.C2f             [768, 256, 1]                 \n 14                  -1  1         0  torch.nn.modules.upsampling.Upsample         [None, 2, 'nearest']          \n 15             [-1, 4]  1         0  ultralytics.nn.modules.conv.Concat           [1]                           \n 16                  -1  1    148224  ultralytics.nn.modules.block.C2f             [384, 128, 1]                 \n 17                  -1  1    147712  ultralytics.nn.modules.conv.Conv             [128, 128, 3, 2]              \n 18            [-1, 13]  1         0  ultralytics.nn.modules.conv.Concat           [1]                           \n 19                  -1  1    493056  ultralytics.nn.modules.block.C2f             [384, 256, 1]                 \n 20                  -1  1     68864  ultralytics.nn.modules.block.SCDown          [256, 256, 3, 2]              \n 21            [-1, 10]  1         0  ultralytics.nn.modules.conv.Concat           [1]                           \n 22                  -1  1   1089536  ultralytics.nn.modules.block.C2fCIB          [768, 512, 1, True, True]     \n 23        [16, 19, 22]  1   1641122  ultralytics.nn.modules.head.v10Detect        [3, [128, 256, 512]]          \nYOLOv10s summary: 235 layers, 8,068,674 parameters, 8,068,658 gradients, 24.8 GFLOPs\n\nTransferred 607/619 items from pretrained weights\nFreezing layer 'model.23.dfl.conv.weight'\n\u001b[34m\u001b[1mAMP: \u001b[0mrunning Automatic Mixed Precision (AMP) checks...\n\u001b[34m\u001b[1mAMP: \u001b[0mchecks passed ✅\n\u001b[34m\u001b[1mtrain: \u001b[0mFast image access 
…
