…
00:1775531925.136170      55 computation_placer.cc:177] computation placer already registered. Please check linkage and avoid linking the same target more than once.\nW0000 00:00:1775531925.136173      55 computation_placer.cc:177] computation placer already registered. Please check linkage and avoid linking the same target more than once.\n","output_type":"stream"},{"name":"stdout","text":"Overriding model.yaml nc=80 with nc=2\n\n                   from  n    params  module                                       arguments                     \n  0                  -1  1       928  ultralytics.nn.modules.conv.Conv             [3, 32, 3, 2]                 \n  1                  -1  1     18560  ultralytics.nn.modules.conv.Conv             [32, 64, 3, 2]                \n  2                  -1  1     29056  ultralytics.nn.modules.block.C2f             [64, 64, 1, True]             \n  3                  -1  1     73984  ultralytics.nn.modules.conv.Conv             [64, 128, 3, 2]               \n  4                  -1  2    197632  ultralytics.nn.modules.block.C2f             [128, 128, 2, True]           \n  5                  -1  1     36096  ultralytics.nn.modules.block.SCDown          [128, 256, 3, 2]              \n  6                  -1  2    788480  ultralytics.nn.modules.block.C2f             [256, 256, 2, True]           \n  7                  -1  1    137728  ultralytics.nn.modules.block.SCDown          [256, 512, 3, 2]              \n  8                  -1  1    958464  ultralytics.nn.modules.block.C2fCIB          [512, 512, 1, True, True]     \n  9                  -1  1    656896  ultralytics.nn.modules.block.SPPF            [512, 512, 5]                 \n 10                  -1  1    990976  ultralytics.nn.modules.block.PSA             [512, 512]                    \n 11                  -1  1         0  torch.nn.modules.upsampling.Upsample         [None, 2, 'nearest']          \n 12             [-1, 6]  1         0  ultralytics.nn.modules.conv.Concat           [1]                           \n 13                  -1  1    591360  ultralytics.nn.modules.block.C2f             [768, 256, 1]                 \n 14                  -1  1         0  torch.nn.modules.upsampling.Upsample         [None, 2, 'nearest']          \n 15             [-1, 4]  1         0  ultralytics.nn.modules.conv.Concat           [1]                           \n 16                  -1  1    148224  ultralytics.nn.modules.block.C2f             [384, 128, 1]                 \n 17                  -1  1    147712  ultralytics.nn.modules.conv.Conv             [128, 128, 3, 2]              \n 18            [-1, 13]  1         0  ultralytics.nn.modules.conv.Concat           [1]                           \n 19                  -1  1    493056  ultralytics.nn.modules.block.C2f             [384, 256, 1]                 \n 20                  -1  1     68864  ultralytics.nn.modules.block.SCDown          [256, 256, 3, 2]              \n 21            [-1, 10]  1         0  ultralytics.nn.modules.conv.Concat           [1]                           \n 22                  -1  1   1089536  ultralytics.nn.modules.block.C2fCIB          [768, 512, 1, True, True]     \n 23        [16, 19, 22]  1   1640348  ultralytics.nn.modules.head.v10Detect        [2, [128, 256, 512]]          \nYOLOv10s summary: 402 layers, 8067900 parameters, 8067884 gradients, 24.8 GFLOPs\n\nTransferred 607/619 items from pretrained weights\n\u001b[34m\u001b[1mTensorBoard: \u001b[0mStart with 'tensorboard --logdir worker_safety/train_dataset_moi', view at http://localhost:6006/\n","output_type":"stream"},{"name":"stderr","text":"/usr/local/lib/python3.12/dist-packages/not
…
